temp_model.tflite (tflite, 22172 bytes, 6 tensors)

sequential_4/dense_14/BiasAdd/ReadVariableOp f4 [10]
0	0xbd97b993	-0.07408442
1	0xbdb6bee8	-0.08923131
2	0xbd920691	-0.07130159
3	0x3dc0b265	0.09409026
4	0xbdc0b380	-0.09409237
5	0xbdb6f257	-0.089329414
6	0xbdc8f2c8	-0.09811932
7	0x3dab1159	0.08352918
8	0xbd7d40ba	-0.061829306
9	0xbde12723	-0.10993793

sequential_4/dense_13/BiasAdd/ReadVariableOp f4 [64]
0	0x3de382f5	0.111089624
1	0xbd81788a	-0.06321819
2	0xbcf812d0	-0.030282408
3	0x00000000	0.0
4	0xbde5377a	-0.11192222
5	0xbcabfbf4	-0.020994164
6	0x3dd76bc4	0.105186015
7	0x3dc05357	0.09390896
8	0xbd321c53	-0.043484043
9	0xbc9fb308	-0.019494548
10	0x3de19b4f	0.11015951
11	0x00000000	0.0
12	0xbd80c02d	-0.062866546
13	0xbcc82030	-0.02442941
14	0x3dbf6619	0.093456455
15	0xbd691fd1	-0.056915108
16	0x00000000	0.0
17	0xbda0232c	-0.078192085
18	0xbba8dcf5	-0.0051532933
19	0x3dbcd6f1	0.09220684
20	0x3dd740ac	0.10510382
21	0x3dbedaef	0.09319102
22	0xbd9ec178	-0.07751745
23	0x3dcc06ad	0.09962211
24	0x3dc5b4f5	0.096536554
25	0xbc0ab32e	-0.008465571
26	0xbc4bf60f	-0.012448802
27	0xbd72ebcc	-0.059306905
28	0xbd71f5c7	-0.059072282
29	0x3dca931c	0.0989134
30	0x3db24ad3	0.08705678
31	0x3d9d9cb8	0.07695907
32	0x3de911d4	0.113803536
33	0xbcc94f13	-0.024573838
34	0x3d7bf2e0	0.06151092
35	0x3df64aea	0.120260075
36	0xbd13895b	-0.036019664
37	0x3ce1a6b7	0.027545316
38	0xbdac188f	-0.08403122
39	0xbda00fff	-0.07815551
40	0x00000000	0.0
41	0x3dcee830	0.1010288
42	0xbd97014f	-0.073732965
43	0xbd7bf67c	-0.061514363
44	0xbd0f6765	-0.035010714
45	0x00000000	0.0
46	0x3c256fe4	0.010097478
47	0x3ddff5d6	0.10935561
48	0x3def7b16	0.11693399
49	0x00000000	0.0
50	0x3da7bf2b	0.08190759
51	0x3dcc15f6	0.09965126
52	0x3dbc2cc8	0.09188229
53	0x3de303c3	0.11084702
54	0x3d982289	0.07428462
55	0x3cbf5e6a	0.02336045
56	0xbcda4ebd	-0.026648873
57	0x3dc3bc4c	0.09557399
58	0xbdb0f7b2	-0.08640994
59	0x3dab26be	0.08356999
60	0xbcf014c1	-0.029306771
61	0x3d1a7ace	0.037714772
62	0x3dc2f2ca	0.095189646
63	0x3da7dfbf	0.08196973

sequential_4/dense_12/BiasAdd/ReadVariableOp f4 [64]
0	0x3daacf88	0.08340365
1	0x3de5e291	0.11224855
2	0x3dc43048	0.095795214
3	0x3cce6001	0.025192263
4	0x3df0ce23	0.117580675
5	0xbba6b8b1	-0.005087935
6	0x3dd4fdee	0.10399996
7	0x3d7db432	0.061939426
8	0xbcee2d42	-0.029074315
9	0xbd475f99	-0.048675153
10	0x3ded0920	0.11574006
11	0x3d513d3e	0.051083796
12	0x3e04b4fc	0.12959665
13	0x3c8790b3	0.01654849
14	0x3d987e10	0.074459195
15	0xbcadf956	-0.021237057
16	0x3df907d4	0.12159696
17	0x3c5d4763	0.013505789
18	0x3df5c376	0.12000172
19	0x3dc875f0	0.0978812
20	0x3e04995e	0.1294913
21	0xbcc15609	-0.023600595
22	0x3dae9a52	0.08525528
23	0x3df811b4	0.121127516
24	0x3d9ee4af	0.07758462
25	0x3de84fe7	0.11343365
26	0xbc4349ef	-0.011919483
27	0xbcefca3a	-0.029271234
28	0x3db54519	0.0885107
29	0x3d8d1ec5	0.068906344
30	0x3d970e25	0.07375745
31	0xbd38c3d9	-0.04510865
32	0x3e00f97d	0.12595172
33	0x3d306cff	0.043072697
34	0x3d3da7eb	0.046302717
35	0xbbeb9061	-0.007188842
36	0x3d24960a	0.04018215
37	0xbd3b3a5b	-0.04570995
38	0xbb329ba0	-0.0027253404
39	0x3dd98dca	0.10622747
40	0x3da88e51	0.0823027
41	0xbcbb3166	-0.022850703
42	0x3e005378	0.12531841
43	0x3ddf97d4	0.10917631
44	0x3dd1bc8a	0.10241039
45	0x3db16bef	0.08663165
46	0x3e042681	0.12905313
47	0x3dd7bfae	0.10534607
48	0x3dc7e651	0.09760726
49	0x3dd012ca	0.10159834
50	0x3e005150	0.12531018
51	0x3e03382e	0.128144
52	0x3df9b138	0.12192005
53	0xbd51cfab	-0.05122344
54	0x3df51811	0.11967481
55	0xbd146535	-0.03622933
56	0x3dd53790	0.10410988
57	0x3c8f7745	0.017512927
58	0xbcc9aba8	-0.024617985
59	0xbb87fb10	-0.004149802
60	0x3df6f036	0.12057535
61	0xbcdf1e62	-0.027236167
62	0x3db68bc4	0.08913377
63	0x3df8a292	0.12140383

sequential_4/dense_12/MatMul f4 [64, 2]
0	0xbd130a40	-0.035898447
1	0xbe66f163	-0.22553019
2	0x3ec41e54	0.3830439
3	0xbd356208	-0.044282943
4	0x3eb2cf37	0.34923717
5	0xbd7096d5	-0.058737595
6	0x3e35c8ec	0.17752427
7	0x3dd2b660	0.102886915
8	0xbd39b05f	-0.045334216
9	0x3ece97b0	0.40350103
10	0xbe4cb47f	-0.19990729
11	0x3ea4faa4	0.32222474
12	0xbe2c763c	-0.16841978
13	0xbe8f0f57	-0.2794139
14	0x3e97ca3a	0.29646474
15	0x3e9ac2cc	0.30226743
16	0xbe87b2f0	-0.26503706
17	0x3eaad2d4	0.33363974
18	0x3ec0b932	0.37641293
19	0xbd5487c5	-0.051887292
20	0x3e9148bc	0.28375804
21	0x3ec25d9a	0.37962037
22	0xbe2de30d	-0.16981144
23	0xbe4045a8	-0.18776572
24	0xbe100f72	-0.14068392
25	0x3e9a3744	0.3012029
26	0x3d38c9ca	0.045114316
27	0x3e6f6d68	0.23381579
28	0xbe6a1a64	-0.2286163
29	0xbd7f918e	-0.06239467
30	0x3ebabec0	0.36473656
31	0x3c35f0df	0.011104791
32	0xbed1d029	-0.40979126
33	0x3e507671	0.20357682
34	0xbea17742	-0.315363
35	0x3e869b90	0.2629056
36	0x3d1556ce	0.036459737
37	0xbd6a100b	-0.057144206
38	0x3e6d7190	0.23187852
39	0x3e3dc5fe	0.1853256
40	0xbdf85d41	-0.12127162
41	0xbe2a9422	-0.1665807
42	0xbeb10c44	-0.3457967
43	0x3e4aa678	0.19790065
44	0x3d15491d	0.03644668
45	0xbdb7aec4	-0.08968881
46	0xbe890586	-0.26762027
47	0x3e1ba50f	0.15199684
48	0xbe6295e0	-0.22127485
49	0xbeaf261b	-0.3420876
50	0x3e7a1a1a	0.2442402
51	0x3ebe660e	0.37187237
52	0x3d890da1	0.06692053
53	0xbe9b54c8	-0.3033812
54	0x3e5384f2	0.20656183
55	0x3e6d0a7f	0.23148535
56	0xbeb24df4	-0.348251
57	0xbe8a843e	-0.27054018
58	0xbeb29850	-0.3488183
59	0x3db8aadb	0.09016963
60	0xbec2eb52	-0.3807016
61	0x3e42dd50	0.19029737
62	0x3e759a88	0.2398473
63	0xbe98671c	-0.29766166
64	0x3e046e8c	0.12932795
65	0xbeac5122	-0.3365565
66	0xbebbb258	-0.36659503
67	0x3da766ff	0.08173942
68	0x3e7a4163	0.24439006
69	0x3e48e6fc	0.19619364
70	0x3db039a6	0.086047456
71	0x3e687812	0.22702053
72	0xbe8b0561	-0.2715254
73	0x3e1a503d	0.15069671
74	0x3d26fc73	0.040768098
75	0x3e0c9fb4	0.13732797
76	0x3ec7ac0e	0.38998455
77	0xbea094fc	-0.31363666
78	0x3ea102ae	0.31447357
79	0x3cf2fef5	0.029662589
80	0xbe4c0a67	-0.19925843
81	0xbd85b2d5	-0.0652825
82	0xbe43ca19	-0.19120063
83	0x3e1adad2	0.15122536
84	0xbd4b5ec7	-0.049650934
85	0x3eaebb1b	0.34127125
86	0x3e1cabfc	0.15299982
87	0x3ea30317	0.31838295
88	0xbe169bd2	-0.14707878
89	0x3ec4c9e7	0.3843529
90	0x3eae569d	0.34050456
91	0xbea33841	-0.31878856
92	0xbe378c01	-0.17924501
93	0xbe4bf6ff	-0.1991844
94	0x3ea43049	0.3206809
95	0x3e82728f	0.25478026
96	0x3e8995a8	0.2687199
97	0x3d8d9fcc	0.069152445
98	0x3e8d4b10	0.2759633
99	0xbe57462a	-0.21022859
100	0xbd5edd1a	-0.054410078
101	0xbe1d2127	-0.15344678
102	0x3debbb8c	0.11510381
103	0x3e179fcd	0.14807053
104	0x3e568bfe	0.2095184
105	0x3eba3bee	0.36373848
106	0xbe870d65	-0.26377407
107	0x3ea07ab3	0.31343612
108	0xbec6a4d5	-0.38797632
109	0xbdd1ca2a	-0.10243638
110	0x3dc71bdb	0.0972211
111	0xbe876819	-0.26446608
112	0x3ec1f847	0.37884733
113	0xbdb661e8	-0.08905393
114	0xbe353e20	-0.1769948
115	0xbe1ce92e	-0.15323326
116	0x3ea68b13	0.3252798
117	0x3de8d8dd	0.113694884
118	0x3eb67fb9	0.3564432
119	0xbdaa75fe	-0.083232865
120	0x3dca557d	0.09879587
121	0xbe1e64a2	-0.15468076
122	0xbe211a65	-0.15732725
123	0x3e03598d	0.1282713
124	0x3eb6846d	0.35647908
125	0x3e84557f	0.25846478
126	0xbed23b17	-0.41060707
127	0xbe3dc892	-0.18533543

sequential_4/dense_13/MatMul f4 [64, 64]
0	0x3e7e0556	0.24806723
1	0x3e8cbeed	0.27489415
2	0xbdcf76fb	-0.101301156
3	0x3c473d42	0.012160601
4	0xbca6f416	-0.020380061
5	0xbdf6589d	-0.120286204
6	0x3e99d81f	0.300477
7	0xbe4828cd	-0.19546814
8	0x3d817219	0.063205905
9	0x3c4265d4	0.011865098
10	0xbe23593b	-0.15952007
11	0xbda6860d	-0.08131037
12	0x3e25f1cc	0.1620552
13	0xbd1721d9	-0.036897514
14	0xbdc3d26b	-0.095616184
15	0xbdcba9cb	-0.09944495
16	0x3e0cb2a2	0.13740018
17	0x3d92aea8	0.07162219
18	0xbb8ffbfc	-0.0043940526
19	0x3d2a5caf	0.041592296
20	0x3deb82b6	0.114995405
21	0xbe6a71b3	-0.22894935
22	0x3e7f23d5	0.24916013
23	0x3db97275	0.09055034
24	0xbccd3439	-0.025049316
25	0x3d8a557e	0.067545876
26	0x3d5c1701	0.053732876
27	0x3dfc7cdc	0.123285025
28	0x3d08ab01	0.033366207
29	0x3c08e615	0.008355637
30	0x3dca48bc	0.09877154
31	0x3d6a660d	0.05722623
32	0x3e5c1d82	0.21495631
33	0xbe606038	-0.21911705
34	0xbd0cf4a7	-0.034413006
35	0x3df2ba08	0.11851889
36	0xbc5731a6	-0.013134396
37	0x3e10b520	0.14131594
38	0xbd453569	-0.04814664
39	0x3cb29d92	0.021803651
40	0x3e8b7a1d	0.27241603
41	0xb9b09bf0	-0.00033685518
42	0x3e8096af	0.25114962
43	0x3d839d48	0.064264834
44	0xbc0052d4	-0.007832248
45	0xbdd6e5c4	-0.10493043
46	0x3cba538e	0.02274492
47	0xbda0dc0d	-0.07854471
48	0x3dae9ae0	0.08525634
49	0xbac95ee4	-0.0015363363
50	0xbd9b4405	-0.07581333
51	0x3e2c1193	0.16803579
52	0xbdc94217	-0.09827059
53	0xbd5369ae	-0.051614456
54	0x3e93bb3f	0.28853795
55	0x3e5d3cd3	0.21605234
56	0x3e18178b	0.14852731
57	0xbbfcd4bb	-0.007715789
58	0xbdd6e6ba	-0.10493226
59	0x3e203016	0.15643343
60	0x3da887ba	0.08229013
61	0xbe752d55	-0.23943074
62	0x3e58e1c4	0.21179873
63	0x3b38d34f	0.0028202122
64	0xbe94075d	-0.28911868
65	0xbdeee031	-0.11663855
66	0xbe3ba2ce	-0.18323824
67	0xbe820027	-0.2539074
68	0x3e41c129	0.18921341
69	0x3e8c864a	0.27446204
70	0x3a91116d	0.0011067815
71	0x3cae8e86	0.021308195
72	0x3dfbbbd4	0.12291685
73	0xbe7d8102	-0.24756244
74	0x3e32f451	0.17476012
75	0x3df356d5	0.11881796
76	0x3e4cc840	0.19998264
77	0x3e2b81b4	0.16748697
78	0xbe1a6dd8	-0.15080965
79	0xbe9bbabc	-0.30415905
80	0x3ce924bd	0.028459901
81	0xbde26b80	-0.1105566
82	0xbe0f2374	-0.13978368
83	0x3e03f49d	0.12886281
84	0xbe8bdd21	-0.27317145
85	0x3e14f59b	0.14546816
86	0xbe90fb6f	-0.2831683
87	0xbdc7f59d	-0.09763644
88	0xbe8b0d9c	-0.2715882
89	0x3dca548a	0.09879406
90	0x3cbc4fda	0.022987295
91	0x3e3ecc26	0.18632564
92	0x3d548e63	0.051893603
93	0x3ae5fd4a	0.00175468
94	0xbdd23e9a	-0.102658466
95	0xbc73be65	-0.014876937
96	0x3e14dc13	0.14537077
97	0xbc17400e	-0.00923158
98	0xbe820844	-0.2539693
99	0x3c920760	0.017825782
100	0x3e0abaf6	0.13547882
101	0x3ea9a0f4	0.3313061
102	0x3e142a7f	0.14469336
103	0xbd9cb6e9	-0.07652075
104	0x3d6be00d	0.05758672
105	0x3e6e90e5	0.2329746
106	0x3e9b4f60	0.30333996
107	0xbd96e452	-0.073677674
108	0x3d4b8050	0.049682915
109	0xbda28fa3	-0.07937553
110	0x3df85114	0.121248394
111	0x3b8639d9	0.0040962514
112	0xbdc24e35	-0.09487573
113	0xbd1eb2ef	-0.038744863
114	0xbda5039f	-0.08057331
115	0x3d798e78	0.060926884
116	0x3e1fd43b	0.15608303
117	0x3e8e7854	0.27826178
118	0xbdf3090b	-0.11866959
119	0x3e2d1b53	0.16904955
120	0xbe1b8b46	-0.15189847
121	0xbe785557	-0.24251305
122	0xbe07bb75	-0.13255103
123	0xbe96177e	-0.29314798
124	0x3d825973	0.06364717
125	0xbb66dd24	-0.0035227025
126	0xbe0810be	-0.13287637
127	0x3e727d28	0.23680556
128	0xbe4ca808	-0.19985974
129	0x3e1a74ab	0.15083568
130	0x3db98881	0.09059239
131	0xbd906583	-0.07050612
132	0x3dcf8a94	0.101338536
133	0xbd8a8934	-0.06764451
134	0xbe141c24	-0.1446386
135	0xbe38996b	-0.18027274
136	0xbda3e2f2	-0.08002271
137	0xbdddd8e3	-0.108323835
138	0x3e0c7c2f	0.13719247
139	0xbe33f0c3	-0.17572312
140	0x3e0c0fe5	0.13677938
141	0xbe73a3d4	-0.23792964
142	0xbe4a6d06	-0.19768152
143	0x3db8c104	0.0902119
144	0x3e177c93	0.14793615
145	0x3e50d360	0.20393133
146	0x3d9ad7ef	0.07560717
147	0xbc2397f9	-0.009984964
148	0x3e1d4ce0	0.15361357
149	0xbc5adbf0	-0.013358101
150	0x3e1f9bb8	0.15586746
151	0x3d32608c	0.043549106
152	0x3dd6afad	0.10482726
153	0xbe534f6c	-0.20635766
154	0x3d916542	0.070993915
155	0xbde0cd06	-0.10976605
156	0x3e5b9d16	0.21446642
157	0x3d869c0a	0.06572731
158	0xbe12b346	-0.143262
159	0x3d393b01	0.045222286
160	0x3d5b2369	0.053500567
161	0xbe497855	-0.1967481
162	0xbdbd7fb5	-0.09252874
163	0xbcaefa79	-0.021359669
164	0xbd21cb30	-0.039500415
165	0x3e29205f	0.16516255
166	0xbe698679	-0.22805203
167	0x3dbd675f	0.09248232
168	0x3da35e5e	0.079769835
169	0xbdd277d0	-0.10276759
170	0xbda0c5c7	-0.07850223
171	0xbe06e41c	-0.13172954
172	0xbdb57ec9	-0.08862073
173	0xbc8b1010	-0.016975433
174	0x3d882933	0.06648483
175	0x3df3150e	0.1186925
176	0xbe5fbec1	-0.2185011
177	0xbca15e6e	-0.019698348
178	0xbe070472	-0.1318529
179	0xbb815cf9	-0.003947851
180	0xbda219ba	-0.07915063
181	0xbe34dc2c	-0.17662114
182	0xbe533ce6	-0.206287
183	0xbe2f5a25	-0.17124231
184	0xbc8cb50e	-0.017176177
185	0xbe23514d	-0.15948983
186	0x3df10836	0.11769144
187	0x3c8845f2	0.016634915
188	0x3d835797	0.06413191
189	0xbcb39d80	-0.021925688
190	0x3d9882ad	0.074467994
191	0xbd8f483b	-0.06996199
192	0x3d81b586	0.06333451
193	0xbd81c408	-0.06336218
194	0x3dc5de1e	0.09661506
195	0xbdefa02d	-0.11700473
196	0x3cc11d10	0.023573428
197	0x3d92d83e	0.07170151
198	0xbd9f9d7c	-0.0779371
199	0x3d0471b4	0.032335
200	0x3d7a71dc	0.06114374
201	0x3dd1c3e2	0.1024244
202	0xbc4959a0	-0.012289435
203	0xbdef7a51	-0.11693252
204	0xbcf55de8	-0.029952005
205	0xbe1e24d2	-0.15443733
206	0x3e20255f	0.15639256
207	0xbe192a9c	-0.1495766
208	0xbd97a530	-0.07404554
209	0x3da706ae	0.08155571
210	0x3d5f8c4c	0.054577157
211	0xbe148bb8	-0.14506423
212	0xbe4fbf0a	-0.2028772
213	0xbe506f4a	-0.20354953
214	0xbdac7c6a	-0.084221676
215	0x3d886c2e	0.06661259
216	0xbca9da10	-0.020733863
217	0x3e321f21	0.17394687
218	0xbe568182	-0.20947841
219	0xbd202e68	-0.039106756
220	0xbe0dd88e	-0.1385214
221	0xbd3f5e08	-0.046720535
222	0xbdc9d745	-0.098555125
223	0xbd01909c	-0.03163205
224	0x3e01ec69	0.1268784
225	0x3d33376c	0.043754026
226	0x3e4d0fd9	0.20025577
227	0x3daeaa0e	0.08528529
228	0xbe4e5117	-0.20148121
229	0x3e2e2e95	0.17009957
230	0xbdf487b3	-0.11939945
231	0xbd921d88	-0.07134539
232	0x3e577dd9	0.21044101
233	0xbe37f186	-0.17963228
234	0xbd771e04	-0.06033136
235	0x3baf31c0	0.005346507
236	0x3d464afc	0.048411354
237	0xbdf8ec27	-0.121544175
238	0x3de74aa6	0.11293535
239	0x3d8673be	0.06565045
240	0xbe512451	-0.2042401
241	0x3d301d04	0.04299642
242	0x3d9adc56	0.07561557
243	0xbe3d5621	-0.18489887
244	0xbe403aa6	-0.18772373
245	0x3e030d95	0.1279815
246	0xbc4ec840	-0.0126209855
247	0xbe1434ae	-0.1447322
248	0x3d84bf2a	0.06481774
249	0xbc8f2058	-0.017471477
250	0xbc653f50	-0.013992146
251	0x3e17ce59	0.14824809
252	0xbd99ed1a	-0.07515927
253	0x3dd39fa2	0.10333182
254	0xbe4455f3	-0.19173412
255	0xbd900fe8	-0.07034284

sequential_4/dense_14/MatMul f4 [10, 64]
0	0xbe955465	-0.2916595
1	0x3e880b7f	0.2657127
2	0x3e80cf86	0.25158328
3	0x3e5fcaaa	0.21854654
4	0xbd9556cb	-0.07291945
5	0x3e0d90f7	0.13824831
6	0xbde3963d	-0.1111264
7	0xbdbebe2e	-0.09313618
8	0x3e66c49a	0.22535935
9	0xbdfcf49d	-0.12351344
10	0x3e3abf06	0.18236932
11	0x3e82b5a1	0.25529197
12	0x3e21b621	0.15792133
13	0xbcc1a4bb	-0.02363812
14	0xbe9c713f	-0.3055515
15	0x3e589eb7	0.21154295
16	0x3daa4ffc	0.08316037
17	0x3e93af9e	0.28844923
18	0x3e48120a	0.19538131
19	0x3e402efc	0.18767923
20	0x3c84fb43	0.016233092
21	0xbeaa36ba	-0.33244878
22	0x3ec22c8a	0.37924606
23	0xbe9592bd	-0.29213515
24	0x3d042b8e	0.0322681
25	0x3d28e61c	0.041235074
26	0x3e0351b0	0.1282413
27	0x3e907590	0.28214693
28	0xbe42d60e	-0.19026968
29	0x3ea460fe	0.3210525
30	0x3d78d17c	0.060746655
31	0xbe727ba7	-0.23679982
32	0xbe0a9dba	-0.1353673
33	0x3df51ab6	0.11967985
34	0xbba1953c	-0.00493112
35	0xbe65dafa	-0.22446814
36	0x3dee202a	0.116272286
37	0x3e810324	0.2519771
38	0x3d251d86	0.04031136
39	0x3e9f82ed	0.31154576
40	0x3d9e2ff4	0.0772399
41	0x3eb4c2f8	0.35305
42	0x3db45732	0.08805694
43	0x3d569e4b	0.052397054
44	0xbe8212e8	-0.2540505
45	0x3de4d284	0.11172965
46	0x3deb8b75	0.11501209
47	0x3cf64e77	0.030066712
48	0xbd2327ed	-0.039832998
49	0x3d94248c	0.07233533
50	0xbeb17219	-0.34657362
51	0xbe00701c	-0.12542766
52	0xbeaf8efa	-0.3428877
53	0x3d54d5b7	0.051961627
54	0xbe2c85e6	-0.16847953
55	0x3e750797	0.23928677
56	0x3e3aa4fa	0.18226996
57	0xbe9b7bda	-0.3036793
58	0x3ce982c1	0.028504731
59	0x3ea0d4b2	0.31412274
60	0xbe89c696	-0.26909322
61	0xbe016eb6	-0.12639889
62	0x3d3f6a7e	0.04673242
63	0x3eca5f8a	0.39526016
64	0xbe1ba7a2	-0.15200666
65	0xbe36fae1	-0.1786914
66	0x3e4bd2a3	0.1990457
67	0xbe28c697	-0.16482006
68	0xbe927f96	-0.28612965
69	0xbd21bc06	-0.039485954
70	0xbe468ea1	-0.19390346
71	0x3e5ee878	0.21768367
72	0xbe488d13	-0.19585066
73	0x3d2400a5	0.040039677
74	0x3dba9f9d	0.09112475
75	0x3e828a33	0.25496063
76	0xbeb5e7c6	-0.35528392
77	0xbe644be7	-0.2229458
78	0xbe3cb542	-0.1842852
79	0x3e9693f3	0.2940975
80	0xbdb3f88e	-0.087876424
81	0x3ea13f32	0.31493527
82	0x3e78d771	0.24300934
83	0xbebb769a	-0.36613923
84	0xbe8e5dc7	-0.2780592
85	0x3d7235e4	0.059133425
86	0xbeb3011c	-0.34961784
87	0xbe824547	-0.2544348
88	0x3dd606ee	0.104505405
89	0x3e003396	0.12519678
90	0xbe736833	-0.23770218
91	0x3e6f3d13	0.23363142
92	0xbeb0bf37	-0.34520885
93	0x3df416f0	0.119184375
94	0x3c4a0396	0.0123299565
95	0x3d7456c7	0.05965307
96	0x39a48b08	0.00031384104
97	0x3ce52309	0.027970808
98	0x3ea442d8	0.32082248
99	0xbe98fc5a	-0.2988003
100	0x3de1f03e	0.11032151
101	0xbe257162	-0.16156533
102	0x3dd030b4	0.101655394
103	0x3bb956c6	0.005656096
104	0x3e48d530	0.19612575
105	0xbe95bef0	-0.29247236
106	0x3e106277	0.14100061
107	0xbc4a0fd1	-0.0123328725
108	0x3e92f2f8	0.28700995
109	0x3e88d4d9	0.2672489
110	0x3e50cf1d	0.20391507
111	0x3d85a7e3	0.065261625
112	0xbd9ced1e	-0.07662414
113	0x3e20ac98	0.1569084
114	0x3e35a4d4	0.17738658
115	0xbe72120e	-0.236397
116	0xbe45cd94	-0.19316703
117	0xbd68244c	-0.05667524
118	0xbe68bfcc	-0.22729415
119	0xbe3050d3	-0.17218332
120	0xbe77ec9a	-0.2421135
121	0xbe33ccdf	-0.17558621
122	0xbd9c716c	-0.07638821
123	0xbe77f6cb	-0.24215238
124	0x3e4afe4b	0.19823568
125	0xbe4a5286	-0.19758043
126	0x3e504d9b	0.20342104
127	0xbe3cdfcd	-0.18444748
128	0xbe127610	-0.1430285
129	0x3e0098c8	0.12558281
130	0x3e6768b0	0.22598529
131	0xbe30b23e	-0.17255494
132	0xbea570b7	-0.32312557
133	0x3df93832	0.121689215
134	0x3e2843bd	0.1643209
135	0x3e031cc7	0.12803946
136	0xbdcd4c28	-0.10024291
137	0x3e2bec53	0.1678937
138	0x3e0dcd21	0.13847782
139	0x3d07c898	0.033150285
140	0x3e075a03	0.1321793
141	0x3e485482	0.19563487
142	0xbe7f8022	-0.24951223
143	0x3dd2d529	0.10294563
144	0xbe8382b1	-0.25685647
145	0xbe761786	-0.24032411
146	0xbe66e2a3	-0.22547393
147	0xbec4f938	-0.3847139
148	0xbebe0654	-0.37114203
149	0xbeb7a504	-0.35868084
150	0xbbf9fe09	-0.0076291603
151	0xbeb3bd56	-0.3510539
152	0x3d8e80e8	0.06958181
153	0xbd157782	-0.036490925
154	0x3e36cb69	0.17851032
155	0xbd775f69	-0.060393725
156	0xbe9ca215	-0.3059241
157	0x3db36f99	0.0876152
158	0xbeb1a85b	-0.34698758
159	0xbd414db2	-0.047193237
160	0xbebf219b	-0.37330326
161	0xbc2c542e	-0.010518117
162	0xbe27e38a	-0.16395393
163	0x3e0ea183	0.139288
164	0xbe9ab4e0	-0.30216122
165	0x3db9e131	0.09076155
166	0xbe7c73bc	-0.24653524
167	0xbe3efe92	-0.18651798
168	0x3e6e7bba	0.23289385
169	0xbeb7851c	-0.35843742
170	0xbd079b32	-0.03310699
171	0x3dee309e	0.11630367
172	0x3ae2c087	0.0017299809
173	0x3e84bdc1	0.2592602
174	0x3e1441fe	0.14478299
175	0xbe9d0d9d	-0.3067445
176	0xbe970521	-0.294961
177	0x3ca57550	0.02019754
178	0xbebd3866	-0.3695709
179	0xbcb41f6c	-0.02198764
180	0xbeaf67ad	-0.34258786
181	0xbce3e9a9	-0.027821379
182	0xbea1acdd	-0.31577197
183	0xbe8b18ff	-0.27167508
184	0xbe2d3969	-0.16916431
185	0xbe93f9a8	-0.2890141
186	0x3e14ecd8	0.14543474
187	0x3dd8088e	0.10548507
188	0x3e05eb44	0.13078028
189	0x3da4524c	0.080235094
190	0xbdd79d33	-0.1052803
191	0x3e121bc3	0.14268403
192	0x3eb9b1b7	0.36268398
193	0x3d29a8be	0.04142069
194	0x3e5f5142	0.21808341
195	0x3e6c7aba	0.23093691
196	0xbe7d8deb	-0.24761169
197	0xbdb5b4cf	-0.08872377
198	0x3d96ef87	0.07369905
199	0xbd5b708d	-0.053574134
200	0xbeaeb215	-0.3412024
201	0x3c4b31a2	0.01240197
202	0x3ea1fc84	0.31637967
203	0x3e85a19f	0.2609987
204	0xbe289c29	-0.1646582
205	0xbd0abde9	-0.03387252
206	0x3cd5c62b	0.02609547
207	0xbe03762f	-0.12838052
208	0xbe52123f	-0.20514773
209	0xbd929f4e	-0.07159291
210	0x3d6b6518	0.057469457
211	0x3e1a82f2	0.15089014
212	0x3dff58fc	0.12468144
213	0xbdbc3adf	-0.09190916
214	0xbe4356e2	-0.19076112
215	0x3e7759b2	0.2415531
216	0x3e8a768d	0.27043572
217	0xbe4236f3	-0.18966274
218	0xbe40282b	-0.18765323
219	0xbeb74fe5	-0.35803142
220	0xbe02c5db	-0.12770788
221	0x3c8c438a	0.017122049
222	0x3e30e1ce	0.17273638
223	0xbeb1ecb3	-0.347509
224	0x3e0ebbd5	0.1393884
225	0x3e3e2398	0.18568265
226	0xbdd4d7e3	-0.103927396
227	0x3e60dd6e	0.21959469
228	0x3db0595b	0.08610793
229	0xbe1855c6	-0.1487647
230	0xbe74916c	-0.23883599
231	0x3c9f83c8	0.019472018
232	0xbe26cbb9	-0.16288652
233	0x3e149ca3	0.14512877
234	0x3b9dce97	0.004815887
235	0xbe1e30d9	-0.15448321
236	0x3e0dc7e5	0.13845785
237	0x3d1d3ed0	0.03838998
238	0xbeb155d2	-0.34635788
239	0x3e3a29b7	0.18179975
240	0x3eb418ad	0.35175076
241	0x3e1baa8a	0.15201774
242	0xbd6fcaeb	-0.058543127
243	0x3e56ab9d	0.20963903
244	0xbe8baf5e	-0.27282232
245	0x3ea2bd9e	0.3178529
246	0x3e5a9005	0.21344002
247	0xbe843c13	-0.25827083
248	0xbd601bcc	-0.05471401
249	0x3dc4d891	0.09611619
250	0xbe50134e	-0.20319864
251	0xbe7a3d03	-0.24437337
252	0xbe70e763	-0.23525767
253	0xbeb0d865	-0.34540096
254	0x3ec8e86e	0.3923983
255	0x3e67221c	0.22571605
